…
 [  0.   0.   1.   0.   0.   0.   0. 143.]]
Test Accuracy =  82.5 %
[[ 10.  1.  0.  1.  0.  0.  0.  0.]
 [  1. 22.  1.  3.  0.  0.  2.  0.]
 [  0.  0. 23.  0.  2.  2.  0.  2.]
 [  0.  1.  1. 21.  1.  3.  1.  0.]
 [  0.  0.  0.  1. 26.  0.  5.  2.]
 [  0.  0.  0.  0.  1. 19.  0.  1.]
 [  0.  0.  0.  0.  2.  0. 19.  1.]
 [  0.  0.  0.  0.  0.  0.  0. 25.]]


Model: "sequential"
_________________________________________________________________
Layer (type)                 Output Shape              Param #   
=================================================================
conv2d (Conv2D)              (None, 205, 52, 8)        208       
_________________________________________________________________
max_pooling2d (MaxPooling2D) (None, 102, 26, 8)        0         
_________________________________________________________________
conv2d_1 (Conv2D)            (None, 34, 12, 16)        1168      
_________________________________________________________________
max_pooling2d_1 (MaxPooling2 (None, 17, 6, 16)         0         
_________________________________________________________________
flatten (Flatten)            (None, 1632)              0         
_________________________________________________________________
dense (Dense)                (None, 128)               209024    
_________________________________________________________________
dense_1 (Dense)              (None, 8)                 1032      
=================================================================
Total params: 211,432
Trainable params: 211,432
Non-trainable params: 0