…
 [  0.   0.   0.   0.   0.   0. 521.   0.]
 [  0.   0.   0.   0.   0.   0.   0. 528.]]
Test Accuracy =  98.1 %
[[26.  0.  0.  0.  0.  0.  0.  0.]
 [ 0. 46.  0.  0.  0.  0.  0.  0.]
 [ 0.  0. 45.  0.  0.  0.  1.  0.]
 [ 0.  0.  0. 49.  0.  0.  2.  0.]
 [ 0.  0.  0.  0. 47.  0.  0.  0.]
 [ 0.  0.  0.  0.  0. 55.  0.  0.]
 [ 0.  0.  0.  0.  0.  0. 52.  0.]
 [ 1.  0.  0.  3.  0.  0.  0. 48.]]



Model: "sequential"
_________________________________________________________________
Layer (type)                 Output Shape              Param #   
=================================================================
conv2d (Conv2D)              (None, 205, 52, 16)       416       
_________________________________________________________________
max_pooling2d (MaxPooling2D) (None, 102, 26, 16)       0         
_________________________________________________________________
conv2d_1 (Conv2D)            (None, 34, 12, 32)        4640      
_________________________________________________________________
max_pooling2d_1 (MaxPooling2 (None, 17, 6, 32)         0         
_________________________________________________________________
flatten (Flatten)            (None, 3264)              0         
_________________________________________________________________
dropout (Dropout)            (None, 3264)              0         
_________________________________________________________________
dense (Dense)                (None, 256)               835840    
_________________________________________________________________
dropout_1 (Dropout)          (None, 256)               0         
_________________________________________________________________
dense_1 (Dense)              (None, 8)                 2056      
=================================================================
Total params: 842,952
Trainable params: 842,952
Non-trainable params: 0